data/pytorch_mnist_quant.pth (torch, 75727 bytes, 8 tensors)

conv_1.weight f4 [4, 1, 5, 5]
-0.06297322 -0.20036936 -0.33204064 0.028624194 0.091597416 0.46943676 -0.2633426 -0.52096033
-0.4293629 -0.31486613 0.49806097 0.12022161 -0.49233612 -0.4579871 -0.08014774 0.4751616
0.6812558 0.3434903 -0.028624194 -0.108771935 -0.03434903 0.57248384 0.5896584 0.48088643
0.085872576 0.017174516 -0.37783936 -0.1488458 0.4751616 0.35494 -0.028624194 -0.017174516
0.49233612 0.53240997 -0.30341643 0.057248387 0.16029549 0.57248384 -0.028624194 -0.38356417
0.21181902 0.19464451 0.028624194 -0.15457064 -0.16029549 -0.057248387 -0.114496775 -0.114496775
0.091597416 0.051523548 -0.2633426 0.045798708 0.011449677 0.5381348 0.12022161 0.0
-0.097322255 -0.06869806 0.5782087 0.13739613 -0.2232687 -0.011449677 -0.13739613 0.7270545
-0.085872576 -0.103047095 0.051523548 -0.0744229 0.71560484 0.108771935 -0.20609419 0.028624194
0.17174515 0.5037858 0.23471838 0.23471838 -0.16602032 -0.15457064 -0.38928902 -0.091597416
-0.18319483 -0.24616806 -0.49806097 -0.022899354 0.103047095 -0.41218838 -0.39501387 0.16602032
0.39501387 0.22899355 0.23471838 0.24044321 0.4579871 0.30914128 0.06869806 0.40646353
0.3263158 0.2232687 -0.017174516 0.045798708
00000000: 1bf8 80bd a02d 4dbe 3b01 aabe 497d ea3c
00000010: 6d97 bb3d 045a f03e d7d4 86be a85d 05bf
00000020: 74d5 dbbe 2236 a1be d901 ff3e bf36 f63d
00000030: 7b13 fcbe 497d eabe 8024 a4bd 6248 f33e
00000040: c866 2e3f f6dd af3e 497d eabc d2c3 debd
00000050: 92b1 0cbd 4d8e 123f daf3 163f bf36 f63e
00000060: f6dd af3d 92b1 8c3c 2974 c1be 096b 18be
00000070: 6248 f33e b2ba b53e 497d eabc 92b1 8cbc
00000080: 7b13 fc3e 054c 083f 6659 9bbe 497d 6a3d
00000090: 8024 243e 4d8e 123f 497d eabc 8662 c4be
000000a0: 16e7 583e e450 473e 497d ea3c c447 1ebe
000000b0: 8024 24be 497d 6abd 497d eabd 497d eabd
000000c0: 6d97 bb3d 5b0a 533d d7d4 86be 6d97 3b3d
000000d0: 6d97 3b3c 34c3 093f bf36 f63d 0000 0000
000000e0: e450 c7bd 92b1 8cbd 7c05 143f 92b1 0c3e
000000f0: 8da0 64be 6d97 3bbc 92b1 0cbe 3e20 3a3f
00000100: f6dd afbd 5b0a d3bd 5b0a 533d 096b 98bd
00000110: e131 373f d2c3 de3d 5b0a 53be 497d ea3c
00000120: f6dd 2f3e 1bf8 003f 045a 703e 045a 703e
00000130: 3b01 2abe c447 1ebe e450 c7be 6d97 bbbd
00000140: 6d97 3bbe 7b13 7cbe d901 ffbe 6d97 bbbc
00000150: 5b0a d33d 5b0a d3be 423f cabe 3b01 2a3e
00000160: 423f ca3e 497d 6a3e 045a 703e bf36 763e
00000170: 497d ea3e c447 9e3e 92b1 8c3d fd1b d03e
00000180: dd12 a73e 8da0 643e 92b1 8cbc 6d97 3b3d

conv_1.bias f4 [4]
0.36210358 0.14826289 -0.039916933 0.28797215
00000000: a465 b93e 3ad2 173e f07f 23bd 1671 933e

conv_2.weight f4 [10, 4, 5, 5]
-0.13363728 0.12409175 0.2004559 0.12886451 0.26727456 0.03340932 0.019091038 0.16227382
0.28159282 -0.023863798 0.12886451 0.10022795 -0.042954836 0.0047727595 -0.038182076 0.23386523
-0.1527283 -0.12886451 -0.21000142 -0.11454623 -0.3197749 -0.2720473 -0.28159282 -0.21954694
0.028636558 0.09545519 -0.057273116 -0.21000142 -0.21954694 -0.18613763 0.0047727595 -0.15750107
-0.27682006 -0.30068386 -0.38182077 0.09068243 0.06681864 0.038182076 0.11931899 -0.03340932
0.18136486 0.36272973 0.3102294 0.22909246 -0.014318279 0.10977347 0.14795555 -0.0047727595
0.009545519 0.028636558 -0.13841003 -0.17659211 -0.2004559 -0.0715914 -0.052500356 -0.10022795
-0.08113691 0.047727596 0.023863798 0.12886451 0.019091038 0.15750107 0.1527283 0.18613763
0.14795555 0.0715914 -0.06681864 -0.13363728 -0.014318279 -0.08113691 -0.16227382 -0.28159282
-0.13363728 -0.2481835 -0.21954694 0.09545519 -0.023863798 -0.1431828 -0.37704802 -0.50113976
0.16227382 0.11931899 -0.09068243 -0.2004559 -0.38182077 0.019091038 0.21477419 0.18136486
0.09545519 -0.014318279 0.20522867 0.32454765 0.014318279 0.17181934 0.03340932 -0.37227526
-0.13363728 -0.0715914 0.038182076 0.042954836 -0.10022795 -0.12886451 -0.12886451 -0.2004559
0.1431828 0.023863798 -0.12886451 -0.19091038 -0.12409175 -0.009545519 0.009545519 -0.18136486
-0.25772902 -0.3197749 -0.07636415 -0.10022795 -0.33886594 -0.13841003 -0.0 0.11931899
0.06681864 0.057273116 0.2720473 -0.019091038 0.0047727595 0.023863798 0.0 0.052500356
-0.17659211 -0.038182076 -0.052500356 -0.062045876 -0.13841003 0.052500356 0.22431971 -0.0715914
0.08113691 0.09545519 0.3675025 0.13841003 0.0047727595 0.21477419 0.21000142 0.11931899
-0.12409175 0.08113691 0.22909246 -0.03340932 -0.11454623 0.14795555 0.06681864 -0.0715914
0.08590967 0.14795555 0.18613763 -0.0047727595 -0.18613763 -0.11454623 -0.047727596 -0.1527283
-0.052500356 -0.20522867 -0.17659211 -0.1431828 -0.11454623 0.11454623 0.08113691 -0.11931899
-0.12886451 -0.009545519 0.22909246 -0.0047727595 -0.18613763 -0.09545519 -0.0715914 -0.0047727595
-0.042954836 -0.11454623 -0.23863798 -0.10022795 -0.10977347 -0.06681864 -0.0715914 0.33409318
0.34841147 -0.057273116 0.13841003 0.42000285 0.33409318 -0.0 -0.019091038 0.1431828
0.028636558 -0.07636415 0.08113691 0.062045876 -0.19091038 -0.16704659 -0.10022795 -0.29113835
-0.27682006 -0.46295768 -0.3913663 -0.23386523 -0.062045876 -0.11931899 -0.4009118 -0.09545519
-0.10022795 -0.24341075 -0.019091038 -0.31500214 0.0047727595 0.25295627 0.12409175 -0.16227382
-0.21477419 0.1431828 0.27682006 -0.1431828 0.11931899 -0.062045876 0.15750107 0.23863798
-0.057273116 -0.1527283 0.047727596 0.023863798 0.17181934 0.014318279 -0.20522867 0.17659211
0.4056846 0.1431828 -0.062045876 -0.009545519 0.22431971 0.12886451 -0.16227382 -0.18613763
-0.11454623 0.07636415 -0.052500356 -0.18613763 -0.08113691 -0.028636558 -0.062045876 -0.15750107
-0.1527283 -0.13363728 -0.057273116 0.062045876 0.16227382 -0.019091038 -0.1431828 -0.08113691
00000000: 36d8 08be d123 fe3d 5044 4d3e 0ff5 033e
00000010: 36d8 883e 36d8 083d cf64 9c3c 1c2b 263e
00000020: ef2c 903e 037e c3bc 0ff5 033e 5044 cd3d
00000030: 69f1 2fbd cf64 9c3b cf64 1cbd 5e7a 6f3e
00000040: cf64 1cbe 0ff5 03be 9d0a 57be 3797 eabd
00000050: 89b9 a3be c949 8bbe ef2c 90be ead0 60be
00000060: 3797 ea3c 037e c33d 3797 6abd 9d0a 57be
00000070: ead0 60be dd9a 3ebe cf64 9c3b f647 21be
00000080: 5cbb 8dbe 3cf3 99be 037e c3be b6b7 b93d
00000090: 36d8 883d cf64 1c3d 845d f43d 36d8 08bd
000000a0: b6b7 393e b6b7 b93e 63d6 9e3e 3797 6a3e
000000b0: 3797 6abc ead0 e03d a981 173e cf64 9cbb
000000c0: cf64 1c3c 3797 ea3c 5cbb 0dbe 90d4 34be
000000d0: 5044 4dbe 839e 92bd 9d0a 57bd 5044 cdbd
000000e0: 1c2b a6bd 037e 433d 037e c33c 0ff5 033e
000000f0: cf64 9c3c f647 213e cf64 1c3e dd9a 3e3e
00000100: a981 173e 839e 923d 36d8 88bd 36d8 08be
00000110: 3797 6abc 1c2b a6bd 1c2b 26be ef2c 90be
00000120: 36d8 08be d123 7ebe ead0 60be 037e c33d
00000130: 037e c3bc 839e 12be 700c c1be b24a 00bf
00000140: 1c2b 263e 845d f43d b6b7 b9bd 5044 4dbe
00000150: 037e c3be cf64 9c3c c4ed 5b3e b6b7 393e
00000160: 037e c33d 3797 6abc 7727 523e 1c2b a63e
00000170: 3797 6a3c 69f1 2f3e 36d8 083d dd9a bebe
00000180: 36d8 08be 839e 92bd cf64 1c3d 69f1 2f3d
00000190: 5044 cdbd 0ff5 03be 0ff5 03be 5044 4dbe
000001a0: 839e 123e 037e c33c 0ff5 03be 037e 43be
000001b0: d123 febd cf64 1cbc cf64 1c3c b6b7 39be
000001c0: 0ff5 83be 89b9 a3be cf64 9cbd 5044 cdbd
000001d0: d67f adbe 5cbb 0dbe 0000 0080 845d f43d
000001e0: 36d8 883d 3797 6a3d c949 8b3e cf64 9cbc
000001f0: cf64 9c3b 037e c33c 0000 0000 9d0a 573d
00000200: 90d4 34be cf64 1cbd 9d0a 57bd d123 7ebd
00000210: 5cbb 0dbe 9d0a 573d 11b4 653e 839e 92bd
00000220: 1c2b a63d 037e c33d 4a29 bc3e 5cbb 0d3e
00000230: cf64 9c3b c4ed 5b3e 9d0a 573e 845d f43d
00000240: d123 febd 1c2b a63d 3797 6a3e 36d8 08bd
00000250: 3797 eabd a981 173e 36d8 883d 839e 92bd
00000260: 69f1 af3d a981 173e dd9a 3e3e cf64 9cbb
00000270: dd9a 3ebe 3797 eabd 037e 43bd cf64 1cbe
00000280: 9d0a 57bd 7727 52be 90d4 34be 839e 12be
00000290: 3797 eabd 3797 ea3d 1c2b a63d 845d f4bd
000002a0: 0ff5 03be cf64 1cbc 3797 6a3e cf64 9cbb
000002b0: dd9a 3ebe 037e c3bd 839e 92bd cf64 9cbb
000002c0: 69f1 2fbd 3797 eabd 845d 74be 5044 cdbd
000002d0: ead0 e0bd 36d8 88bd 839e 92bd 430e ab3e
000002e0: fd62 b23e 3797 6abd 5cbb 0d3e 9d0a d73e
000002f0: 430e ab3e 0000 0080 cf64 9cbc 839e 123e
00000300: 3797 ea3c cf64 9cbd 1c2b a63d d123 7e3d
00000310: 037e 43be 430e 2bbe 5044 cdbd 1610 95be
00000320: 5cbb 8dbe ca08 edbe 2a61 c8be 5e7a 6fbe
00000330: d123 7ebd 845d f4bd 5044 cdbe 037e c3bd
00000340: 5044 cdbd ab40 79be cf64 9cbc f647 a1be
00000350: cf64 9c3b 7c83 813e d123 fe3d 1c2b 26be
00000360: c4ed 5bbe 839e 123e 5cbb 8d3e 839e 12be
00000370: 845d f43d d123 7ebd f647 213e 845d 743e
00000380: 3797 6abd cf64 1cbe 037e 433d 037e c33c
00000390: 69f1 2f3e 3797 6a3c 7727 52be 90d4 343e
000003a0: e4b5 cf3e 839e 123e d123 7ebd cf64 1cbc
000003b0: 11b4 653e 0ff5 033e 1c2b 26be dd9a 3ebe
000003c0: 3797 eabd cf64 9c3d 9d0a 57bd dd9a 3ebe
000003d0: 1c2b a6bd 3797 eabc d123 7ebd f647 21be
000003e0: cf64 1cbe 36d8 08be 3797 6abd d123 7e3d
000003f0: 1c2b 263e cf64 9cbc 839e 12be 1c2b a6bd

conv_2.bias f4 [10]
-0.288827 -0.1364537 0.1682929 0.1046145 -0.061404165 -0.036387652 0.034113426 -0.077323765
-0.0022742283 -0.27063316
00000000: 22e1 93be 85ba 0bbe f954 2c3e 2140 d63d
00000010: ef82 7bbd 380b 15bd 85ba 0b3d ec5b 9ebd
00000020: 380b 15bb 6e90 8abe

fc_1.weight f4 [100, 160]
-0.0031021785 0.062043566 -0.046532676 -0.07445228 0.05273703 0.07755446 -0.09616753 -0.05273703
-0.05894139 -0.01861307 -0.10547406 -0.027919605 -0.024817428 -0.065145746 -0.0031021785 -0.05583921
0.05273703 0.043430496 0.012408714 -0.08065664 0.07445228 -0.07445228 -0.046532676 -0.012408714
-0.006204357 -0.08065664 -0.06824792 -0.027919605 0.015510892 0.046532676 -0.043430496 -0.021715248
0.062043566 0.006204357 0.012408714 0.083758816 0.049634855 0.071350105 -0.03722614 -0.046532676
-0.031021783 0.06824792 0.089963175 0.07755446 -0.0 -0.05894139 -0.046532676 -0.031021783
-0.046532676 -0.05894139 -0.049634855 -0.083758816 0.05273703 -0.024817428 0.03722614 0.012408714
-0.0031021785 0.05583921 0.05583921 0.03722614 0.083758816 0.027919605 -0.009306535 -0.0
-0.062043566 0.046532676 0.01861307 -0.05583921 -0.021715248 -0.09616753 0.05583921 0.08065664
-0.027919605 -0.09616753 0.043430496 0.015510892 -0.05583921 -0.05894139 -0.027919605 -0.043430496
0.009306535 -0.015510892 0.0 -0.05894139 0.065145746 0.089963175 0.05273703 -0.031021783
-0.049634855 -0.024817428 -0.015510892 0.03722614 0.027919605 -0.024817428 0.05273703 0.05273703
-0.07445228 0.009306535 -0.05583921 -0.03722614 0.071350105 -0.006204357 -0.08065664 0.07445228
0.012408714 -0.01861307 -0.07755446 -0.05894139 -0.083758816 -0.046532676 -0.07445228 0.049634855
0.05583921 0.015510892 -0.01861307 0.006204357 0.021715248 0.03722614 0.062043566 0.062043566
-0.012408714 -0.049634855 0.024817428 0.08065664 0.006204357 -0.021715248 -0.021715248 0.043430496
0.08686099 0.05583921 0.08065664 -0.07755446 0.006204357 0.07445228 -0.062043566 -0.03412396
0.083758816 -0.046532676 0.043430496 -0.043430496 0.04032832 0.009306535 -0.03412396 -0.07445228
-0.05583921 0.08065664 0.03412396 0.01861307 0.06824792 0.006204357 0.01861307 0.08686099
0.015510892 -0.05894139 -0.049634855 -0.012408714 -0.09616753 -0.03722614 -0.04032832 -0.04032832
-0.006204357 0.04032832 0.0031021785 -0.03412396 -0.01861307 0.071350105 -0.01861307 -0.07445228
-0.024817428 0.062043566 -0.043430496 0.012408714 -0.03412396 0.062043566 0.006204357 -0.046532676
0.11167842 0.04032832 -0.06824792 0.083758816 -0.006204357 -0.11788278 -0.031021783 -0.012408714
-0.07445228 -0.03722614 -0.09616753 -0.09616753 -0.024817428 -0.12408713 -0.021715248 0.015510892
0.012408714 0.09306535 0.083758816 0.083758816 0.13649584 -0.12718931 0.12408713 -0.021715248
-0.08686099 -0.06824792 0.12408713 -0.009306535 -0.06824792 -0.015510892 -0.07755446 0.05273703
-0.09616753 0.046532676 0.04032832 0.08065664 0.089963175 -0.03722614 -0.021715248 -0.024817428
-0.083758816 -0.006204357 -0.0 -0.006204357 0.015510892 -0.024817428 -0.021715248 -0.049634855
0.07445228 0.14890456 -0.05894139 0.08686099 0.06824792 -0.0031021785 -0.01861307 -0.07755446
0.065145746 -0.043430496 -0.046532676 0.0 0.089963175 0.08686099 0.08065664 0.046532676
0.05894139 -0.13029149 -0.03722614 -0.049634855 -0.05273703 -0.027919605 0.071350105 -0.06824792
0.06824792 -0.05894139 0.062043566 0.009306535 -0.04032832 -0.043430496 0.021715248 0.11788278
00000000: eb4d 4bbb 6521 7e3d 0c99 3ebd 707a 98bd
00000010: c902 583d dfd4 9e3d 7bf3 c4bd c902 58bd
00000020: 876c 71bd 707a 98bc c902 d8bd a8b7 e4bc
00000030: eb4d cbbc 226b 85bd eb4d 4bbb a8b7 64bd
00000040: c902 583d 2de4 313d eb4d 4b3c 4f2f a5bd
00000050: 707a 983d 707a 98bd 0c99 3ebd eb4d 4bbc
00000060: eb4d cbbb 4f2f a5bd 91c5 8bbd a8b7 e4bc
00000070: 6521 7e3c 0c99 3e3d 2de4 31bd 2de4 b1bc
00000080: 6521 7e3d eb4d cb3b eb4d 4b3c be89 ab3d
00000090: eb4d 4b3d 0120 923d 707a 18bd 0c99 3ebd
000000a0: 6521 febc 91c5 8b3d 9d3e b83d dfd4 9e3d
000000b0: 0000 0080 876c 71bd 0c99 3ebd 6521 febc
000000c0: 0c99 3ebd 876c 71bd eb4d 4bbd be89 abbd
000000d0: c902 583d eb4d cbbc 707a 183d eb4d 4b3c
000000e0: eb4d 4bbb a8b7 643d a8b7 643d 707a 183d
000000f0: be89 ab3d a8b7 e43c 707a 18bc 0000 0080
00000100: 6521 7ebd 0c99 3e3d 707a 983c a8b7 64bd
00000110: 2de4 b1bc 7bf3 c4bd a8b7 643d 4f2f a53d
00000120: a8b7 e4bc 7bf3 c4bd 2de4 313d 6521 7e3c
00000130: a8b7 64bd 876c 71bd a8b7 e4bc 2de4 31bd
00000140: 707a 183c 6521 7ebc 0000 0000 876c 71bd
00000150: 226b 853d 9d3e b83d c902 583d 6521 febc
00000160: eb4d 4bbd eb4d cbbc 6521 7ebc 707a 183d
00000170: a8b7 e43c eb4d cbbc c902 583d c902 583d
00000180: 707a 98bd 707a 183c a8b7 64bd 707a 18bd
00000190: 0120 923d eb4d cbbb 4f2f a5bd 707a 983d
000001a0: eb4d 4b3c 707a 98bc dfd4 9ebd 876c 71bd
000001b0: be89 abbd 0c99 3ebd 707a 98bd eb4d 4b3d
000001c0: a8b7 643d 6521 7e3c 707a 98bc eb4d cb3b
000001d0: 2de4 b13c 707a 183d 6521 7e3d 6521 7e3d
000001e0: eb4d 4bbc eb4d 4bbd eb4d cb3c 4f2f a53d
000001f0: eb4d cb3b 2de4 b1bc 2de4 b1bc 2de4 313d
00000200: 2de4 b13d a8b7 643d 4f2f a53d dfd4 9ebd
00000210: eb4d cb3b 707a 983d 6521 7ebd 91c5 0bbd
00000220: be89 ab3d 0c99 3ebd 2de4 313d 2de4 31bd
00000230: 4f2f 253d 707a 183c 91c5 0bbd 707a 98bd
00000240: a8b7 64bd 4f2f a53d 91c5 0b3d 707a 983c
00000250: 91c5 8b3d eb4d cb3b 707a 983c 2de4 b13d
00000260: 6521 7e3c 876c 71bd eb4d 4bbd eb4d 4bbc
00000270: 7bf3 c4bd 707a 18bd 4f2f 25bd 4f2f 25bd
00000280: eb4d cbbb 4f2f 253d eb4d 4b3b 91c5 0bbd
00000290: 707a 98bc 0120 923d 707a 98bc 707a 98bd
000002a0: eb4d cbbc 6521 7e3d 2de4 31bd eb4d 4b3c
000002b0: 91c5 0bbd 6521 7e3d eb4d cb3b 0c99 3ebd
000002c0: a8b7 e43d 4f2f 253d 91c5 8bbd be89 ab3d
000002d0: eb4d cbbb 876c f1bd 6521 febc eb4d 4bbc
000002e0: 707a 98bd 707a 18bd 7bf3 c4bd 7bf3 c4bd
000002f0: eb4d cbbc 6521 febd 2de4 b1bc 6521 7e3c
00000300: eb4d 4b3c 0c99 be3d be89 ab3d be89 ab3d
00000310: 91c5 0b3e ea3d 02be 6521 fe3d 2de4 b1bc
00000320: 2de4 b1bd 91c5 8bbd 6521 fe3d 707a 18bc
00000330: 91c5 8bbd 6521 7ebc dfd4 9ebd c902 583d
00000340: 7bf3 c4bd 0c99 3e3d 4f2f 253d 4f2f a53d
00000350: 9d3e b83d 707a 18bd 2de4 b1bc eb4d cbbc
00000360: be89 abbd eb4d cbbb 0000 0080 eb4d cbbb
00000370: 6521 7e3c eb4d cbbc 2de4 b1bc eb4d 4bbd
00000380: 707a 983d 707a 183e 876c 71bd 2de4 b13d
00000390: 91c5 8b3d eb4d 4bbb 707a 98bc dfd4 9ebd
000003a0: 226b 853d 2de4 31bd 0c99 3ebd 0000 0000
000003b0: 9d3e b83d 2de4 b13d 4f2f a53d 0c99 3e3d
000003c0: 876c 713d 226b 05be 707a 18bd eb4d 4bbd
000003d0: c902 58bd a8b7 e4bc 0120 923d 91c5 8bbd
000003e0: 91c5 8b3d 876c 71bd 6521 7e3d 707a 183c
000003f0: 4f2f 25bd 2de4 31bd 2de4 b13c 876c f13d

fc_1.bias f4 [100]
0.067471 0.014632264 0.007316132 0.103238754 -0.01138065 0.09673552 0.08454197 -0.07153551
-0.008129036 -0.026012914 0.033329047 0.07153551 -0.05202583 0.09429681 -0.00081290357 0.042270985
0.02032259 -0.007316132 -0.05202583 0.07478713 -0.0024387108 -0.03658066 0.005690325 0.013819361
-0.078038745 0.029264528 -0.035767756 0.030890336 -0.007316132 0.07316132 0.044709697 -0.02032259
0.044709697 0.03820647 0.042270985 -0.01138065 -0.07316132 -0.007316132 0.008129036 -0.056090347
0.08291616 0.037393566 -0.06990971 0.07641294 0.053651635 -0.035767756 -0.07885165 -0.030890336
0.06584519 0.04145808 0.07885165 -0.03170324 0.064219385 -0.03414195 -0.03658066 -0.035767756
-0.026825817 0.051212925 0.08210326 0.04308389 -0.005690325 0.033329047 0.078038745 0.06340648
0.004064518 -0.0690968 -0.07072261 0.014632264 0.07072261 -0.03820647 0.039832275 -0.07722584
0.0024387108 -0.05283873 0.042270985 -0.043896794 0.029264528 -0.026012914 0.013006457 0.039019372
-0.039019372 0.0910452 0.026012914 0.057716154 0.05283873 0.029264528 0.010567746 -0.017883878
-0.051212925 0.042270985 -0.004064518 -0.07885165 0.048774213 0.06340648 -0.021948397 0.021135492
-0.016258072 -0.039019372 0.04145808 0.0048774215
00000000: 3c2e 8a3d 2abc 6f3c 2abc ef3b d76e d33d
00000010: e875 3abc 461d c63d 5724 ad3d 3681 92bd
00000020: a62f 05bc 0919 d5bc 0a84 083d 3681 923d
00000030: 0919 55bd b01e c13d 0919 55ba 5724 2d3d
00000040: 8f7b a63c 2abc efbb 0919 55bd ff29 993d
00000050: c7d2 1fbb 9ad5 15bd e875 ba3b 9a6a 623c
00000060: c7d2 9fbd 2abc ef3c 3681 12bd bb0d fd3c
00000070: 2abc efbb 9ad5 953d 8421 373d 8f7b a6bc
00000080: 8421 373d 637e 1c3d 5724 2d3d e875 3abc
00000090: 9ad5 95bd 2abc efbb a62f 053c febe 65bd
000000a0: f3cf a93d ff29 193d d22c 8fbd 637e 9c3d
000000b0: d1c1 5b3d 3681 12bd f97c a1bd bb0d fdbc
000000c0: d8d9 863d f3cf 293d f97c a13d 42db 01bd
000000d0: 7485 833d 6ed8 0bbd 9ad5 15bd 3681 12bd
000000e0: d1c1 dbbc a5c4 513d c125 a83d bc78 303d
000000f0: e875 babb 0a84 083d c7d2 9f3d 42db 813d
00000100: a62f 853b a082 8dbd 04d7 90bd 2abc 6f3c
00000110: 04d7 903d 637e 1cbd 2b27 233d 9528 9ebd
00000120: c7d2 1f3b 6d6d 58bd 5724 2d3d 20cd 33bd
00000130: 2abc ef3c 0919 d5bc 0919 553c c7d2 1f3d
00000140: c7d2 1fbd e875 ba3d 0919 d53c c667 6c3d
00000150: 6d6d 583d 2abc ef3c 5724 2d3c 3681 92bc
00000160: a5c4 51bd 5724 2d3d a62f 85bb f97c a1bd
00000170: 78c7 473d 42db 813d 20cd b3bc 5724 ad3c
00000180: a62f 85bc c7d2 1fbd f3cf 293d c7d2 9f3b

fc_2.weight f4 [10, 100]
0.070594564 -0.049416196 -0.070594564 -0.0 -0.035297282 -0.08471348 0.0035297284 0.049416196
0.19766478 0.010589185 -0.007059457 -0.09883239 0.070594564 -0.18354587 0.04588647 0.10236212
0.3000269 0.17295669 -0.038827013 0.22237289 -0.070594564 0.007059457 0.08824321 -0.052945927
0.02117837 0.15177833 0.02117837 -0.02117837 -0.2611999 0.2506107 -0.070594564 0.010589185
-0.3988593 -0.2117837 0.052945927 -0.10236212 0.06706484 0.21884316 -0.017648641 0.024708098
0.07412429 0.2364918 0.028237827 0.21884316 0.06706484 -0.39532956 -0.0035297284 -0.3212053
0.22237289 0.09177294 -0.18354587 -0.18001615 -0.13412967 0.007059457 0.40238902 -0.04235674
-0.007059457 -0.3000269 -0.024708098 0.095302664 0.18354587 0.031767555 -0.06353511 0.0035297284
0.07765403 0.10589185 0.30708638 0.08824321 -0.010589185 -0.095302664 -0.13059995 -0.13059995
-0.26472962 0.28590798 -0.10942158 -0.13059995 -0.017648641 -0.12354049 0.0035297284 -0.16942696
0.081183754 -0.20119451 -0.20119451 0.2364918 0.20825396 -0.2611999 -0.17295669 -0.14471886
0.0035297284 -0.09177294 0.116481036 0.15177833 0.22237289 0.028237827 0.20825396 -0.19060533
0.08471348 -0.25767016 -0.07765403 -0.20472424 0.22237289 0.15530805 0.017648641 0.21531343
0.35650256 0.19766478 -0.19413505 0.10942158 -0.24708098 -0.08471348 -0.017648641 -0.08471348
-0.44474578 0.010589185 0.031767555 0.02117837 -0.25767016 -0.017648641 -0.070594564 0.1870756
-0.024708098 0.28590798 0.04588647 0.04588647 -0.19766478 -0.049416196 -0.13412967 -0.12001076
0.028237827 -0.14118913 -0.0 0.06000538 0.15177833 -0.23296207 -0.028237827 0.038827013
0.116481036 0.22943234 0.04588647 0.017648641 0.13412967 -0.07412429 -0.08471348 0.26472962
-0.014118914 0.035297282 0.10236212 -0.038827013 0.07765403 -0.11295131 0.10589185 0.2364918
0.056475654 -0.20825396 -0.19060533 0.10589185 0.0035297284 -0.17295669 -0.031767555 0.10589185
0.007059457 -0.017648641 -0.1376594 -0.36709175 -0.038827013 -0.04235674 -0.13059995 0.22237289
0.24355125 -0.15883778 -0.04235674 -0.11295131 -0.052945927 0.038827013 0.010589185 -0.070594564
-0.1870756 0.031767555 0.19766478 0.2506107 0.09883239 -0.056475654 0.31767556 0.15530805
0.035297282 -0.16942696 0.09883239 0.27884853 0.014118914 -0.08824321 -0.25767016 -0.0035297284
-0.11295131 0.2506107 0.10942158 0.27178907 -0.081183754 0.12354049 0.34238365 -0.07412429
0.056475654 -0.27178907 0.06353511 -0.10589185 -0.06706484 -0.081183754 0.0035297284 0.13412967
-0.14824858 0.10942158 0.04588647 -0.038827013 0.24708098 -0.19766478 -0.10589185 -0.06353511
-0.04235674 0.014118914 -0.06000538 -0.081183754 -0.1376594 -0.19060533 -0.07765403 0.017648641
0.18001615 0.014118914 0.116481036 0.10589185 0.035297282 -0.3212053 -0.08824321 -0.3494431
0.20825396 -0.18354587 -0.017648641 0.02117837 -0.010589185 -0.031767555 0.035297282 -0.04235674
0.25414044 0.049416196 -0.1376594 0.16236751 0.007059457 -0.27884853 0.33179447 -0.35297284
0.33179447 0.0035297284 0.2506107 0.20119451 -0.27178907 -0.10942158 -0.19060533 0.017648641
00000000: e293 903d a368 4abd e293 90bd 0000 0080
00000010: e293 10bd 437e adbd 0453 673b a368 4a3d
00000020: a368 4a3e 437e 2d3c 0453 e7bb a368 cabd
00000030: e293 903d 73f3 3bbe 73f3 3b3d 3ba3 d13d
00000040: 209d 993e 8f1b 313e 1309 1fbd b8b5 633e
00000050: e293 90bd 0453 e73b dbb8 b43d d4dd 58bd
00000060: 437e ad3c c76b 1b3e 437e ad3c 437e adbc
00000070: febb 85be 0c50 803e e293 90bd 437e 2d3c
00000080: 4937 ccbe d4dd 58be d4dd 583d 3ba3 d1bd
00000090: 4a59 893d 6c18 603e e293 90bc a368 ca3c
000000a0: 7ace 973d e82a 723e 0453 e73c 6c18 603e
000000b0: 4a59 893d a368 cabe 0453 67bb 0575 a4be
000000c0: b8b5 633e 73f3 bb3d 73f3 3bbe 2756 38be
000000d0: 4a59 09be 0453 e73b ef05 ce3e 437e 2dbd
000000e0: 0453 e7bb 209d 99be a368 cabc 0b2e c33d
000000f0: 73f3 3b3e b21e 023d b21e 82bd 0453 673b
00000100: 1309 9f3d d4dd d83d 6d3a 9d3e dbb8 b43d
00000110: 437e 2dbc 0b2e c3bd febb 05be febb 05be
00000120: a48a 87be 8862 923e 6c18 e0bd febb 05be
00000130: e293 90bc cc02 fdbd 0453 673b 437e 2dbe
00000140: ab43 a63d ef05 4ebe ef05 4ebe e82a 723e
00000150: 8740 553e febb 85be 8f1b 31be 2e31 14be
00000160: 0453 673b 73f3 bbbd 9c8d ee3d c76b 1b3e
00000170: b8b5 633e 0453 e73c 8740 553e 0b2e 43be
00000180: 437e ad3d 58ed 83be 1309 9fbd 3ba3 51be
00000190: b8b5 633e 1309 1f3e e293 903c 207b 5c3e
000001a0: 8187 b63e a368 4a3e 57cb 46be 6c18 e03d
000001b0: cc02 7dbe 437e adbd e293 90bc 437e adbd
000001c0: b8b5 e3be 437e 2d3c b21e 023d 437e ad3c
000001d0: 58ed 83be e293 90bc e293 90bd bf90 3f3e
000001e0: a368 cabc 8862 923e 73f3 3b3d 73f3 3b3d
000001f0: a368 4abe a368 4abd 4a59 09be 34c8 f5bd
00000200: 0453 e73c e293 10be 0000 0080 34c8 753d
00000210: c76b 1b3e 9c8d 6ebe 0453 e7bc 1309 1f3d
00000220: 9c8d ee3d 50f0 6a3e 73f3 3b3d e293 903c
00000230: 4a59 093e 7ace 97bd 437e adbd a48a 873e
00000240: 0453 67bc e293 103d 3ba3 d13d 1309 1fbd
00000250: 1309 9f3d 0453 e7bd d4dd d83d e82a 723e
00000260: 0453 673d 8740 55be 0b2e 43be d4dd d83d
00000270: 0453 673b 8f1b 31be b21e 02bd d4dd d83d
00000280: 0453 e73b e293 90bc 96f6 0cbe 73f3 bbbe
00000290: 1309 1fbd 437e 2dbd febb 05be b8b5 633e
000002a0: 8065 793e 5fa6 22be 437e 2dbd 0453 e7bd
000002b0: d4dd 58bd 1309 1f3d 437e 2d3c e293 90bd
000002c0: bf90 3fbe b21e 023d a368 4a3e 0c50 803e
000002d0: a368 ca3d 0453 67bd 5fa6 a23e 1309 1f3e
000002e0: e293 103d 437e 2dbe a368 ca3d 3cc5 8e3e
000002f0: 0453 673c dbb8 b4bd 58ed 83be 0453 67bb
00000300: 0453 e7bd 0c50 803e 6c18 e03d f027 8b3e
00000310: ab43 a6bd cc02 fd3d e94c af3e 7ace 97bd
00000320: 0453 673d f027 8bbe b21e 823d d4dd d8bd
00000330: 4a59 89bd ab43 a6bd 0453 673b 4a59 093e
00000340: 7ace 17be 6c18 e03d 73f3 3b3d 1309 1fbd
00000350: cc02 7d3e a368 4abe d4dd d8bd b21e 82bd
00000360: 437e 2dbd 0453 673c 34c8 75bd ab43 a6bd
00000370: 96f6 0cbe 0b2e 43be 1309 9fbd e293 903c
00000380: 2756 383e 0453 673c 9c8d ee3d d4dd d83d
00000390: e293 103d 0575 a4be dbb8 b4bd 35ea b2be
000003a0: 8740 553e 73f3 3bbe e293 90bc 437e ad3c
000003b0: 437e 2dbc b21e 02bd e293 103d 437e 2dbd
000003c0: b21e 823e a368 4a3d 96f6 0cbe ab43 263e
000003d0: 0453 e73b 3cc5 8ebe f7e0 a93e dbb8 b4be
000003e0: f7e0 a93e 0453 673b 0c50 803e ef05 4e3e
000003f0: f027 8bbe 6c18 e0bd 0b2e 43be e293 903c

fc_2.bias f4 [10]
0.025808845 0.005735299 -0.037279442 -0.034411795 0.12139716 0.011470598 -0.0908089 0.052573573
0.025808845 -0.04779416
00000000: 126d d33c 2def bb3b 54b2 18bd 62f3 0cbd
00000010: 139f f83d 2def 3b3c 04fa b9bd 6357 573d
00000020: 126d d33c cfc3 43bd
