data/pytorch_mnist.pth (torch, 75343 bytes, 8 tensors)

conv_1.weight f4 [4, 1, 5, 5]
0	0xbd7d3cc4	-0.06182553
1	0xbe4aadaa	-0.1979281
2	0xbeab46b8	-0.33452392
3	0x3ced4f6c	0.028968535
4	0x3db9fa15	0.090809025
5	0x3eef9adb	0.46797833
6	0xbe88432a	-0.26613742
7	0xbf05d1fd	-0.5227354
8	0xbedcf6dd	-0.43157092
9	0xbea057ec	-0.3131708
10	0x3efdabcf	0.49545142
11	0x3df83e64	0.12121275
12	0xbefb2050	-0.4904809
13	0xbeea4fe2	-0.4576407
14	0xbda74b85	-0.08168701
15	0x3ef4227a	0.47682554
16	0x3f2ecfe9	0.68285996
17	0x3eb03529	0.34415558
18	0xbcd5e0d7	-0.026108189
19	0xbddf6924	-0.10908726
20	0xbd182d4c	-0.037152573
21	0x3f12b88c	0.57312846
22	0x3f1797c8	0.59215975
23	0x3ef55a53	0.47920474
24	0x3dad8c95	0.084740795
25	0x3c8a9d8f	0.016920833
26	0xbec0e7cf	-0.37676856
27	0xbe1700f9	-0.14746465
28	0x3ef3d745	0.47625175
29	0x3eb59ad3	0.35469684
30	0xbcf48457	-0.02984826
31	0xbc778930	-0.015108392
32	0x3efb3cac	0.49069726
33	0x3f08340f	0.53204435
34	0xbe9a7456	-0.30166882
35	0x3d73e108	0.05954078
36	0x3e2146dc	0.15749687
37	0x3f12dd99	0.5736938
38	0xbcd9d76f	-0.026591985
39	0xbec3c346	-0.3823492
40	0x3e56332c	0.20917958
41	0x3e49888c	0.19680995
42	0x3cf5607d	0.029953236
43	0xbe200bc4	-0.15629488
44	0xbe250c4a	-0.16117969
45	0xbd622f8d	-0.05522113
46	0xbdee6903	-0.11641123
47	0xbdefe339	-0.11713261
48	0x3dbbe98c	0.09175405
49	0x3d4ffe19	0.050779436
50	0xbe870afd	-0.2637557
51	0x3d3bf4b7	0.045887675
52	0x3c612ebf	0.013744055
53	0x3f09caa8	0.53824854
54	0x3df6fc37	0.12059825
55	0x3a3168b6	0.00067676173
56	0xbdc429a7	-0.09578257
57	0xbd89beda	-0.06725855
58	0x3f136ff4	0.575927
59	0x3e09efa9	0.1347033
60	0xbe650aa2	-0.22367337
61	0xbc458e88	-0.012057908
62	0xbe0c453b	-0.13698284
63	0x3f3a203e	0.7270545
64	0xbdadae7b	-0.08480545
65	0xbdcf74cf	-0.10129701
66	0x3d4ab995	0.04949339
67	0xbd930308	-0.071783125
68	0x3f374270	0.7158575
69	0x3ddd8d40	0.10817957
70	0xbe5308c4	-0.20608813
71	0x3cf0a0fe	0.029373642
72	0x3e30dfb4	0.17272836
73	0x3f00819a	0.50197756
74	0x3e6ebe0a	0.23314682
75	0x3e712916	0.2355083
76	0xbe2b4b54	-0.16727954
77	0xbe1cdec5	-0.15319355
78	0xbec66bbd	-0.38754073
79	0xbdbfe298	-0.09369391
80	0xbe3a0c45	-0.18168743
81	0xbe7b3e2c	-0.24535435
82	0xbeff42f2	-0.49855763
83	0xbcbb0370	-0.022828788
84	0x3dcd368e	0.10020171
85	0xbed44ed2	-0.41466385
86	0xbec9280e	-0.39288372
87	0x3e27f9d2	0.16403893
88	0x3ec8e678	0.39238334
89	0x3e68ebd2	0.22746208
90	0x3e6e1e17	0.23253666
91	0x3e73a738	0.23794258
92	0x3eea1a1e	0.4572305
93	0x3e9cdeaf	0.30638644
94	0x3d9046ac	0.070447296
95	0x3ed0f6f7	0.4081342
96	0x3ea60bac	0.3243078
97	0x3e672fed	0.22576876
98	0xbc6eb5f2	-0.014569746
99	0x3d44c90f	0.048043307

conv_1.bias f4 [4]
0	0x3eb965a4	0.36210358
1	0x3e18a537	0.14906774
2	0xbd2248a8	-0.03962007
3	0x3e92b811	0.28656057

conv_2.weight f4 [10, 4, 5, 5]
0	0xbe088bdb	-0.133346
1	0x3e014e76	0.12627587
2	0x3e4dc112	0.20093182
3	0x3e04b0a8	0.12958014
4	0x3e882fc5	0.26598945
5	0x3d0eab60	0.034831405
6	0x3caf17d1	0.021373661
7	0x3e2556cb	0.1614639
8	0x3e90b8ef	0.28266093
9	0xbcb22e18	-0.021750495
10	0x3e059cf5	0.13048156
11	0x3dcc8737	0.09986728
12	0xbd2b0e96	-0.041761957
13	0x3bd1751b	0.006392134
14	0xbd1d98a7	-0.03847566
15	0x3e6ed2fb	0.2332267
16	0xbe1b0b1a	-0.15140954
17	0xbe063a5e	-0.13108203
18	0xbe576b96	-0.21037135
19	0xbde7cf5f	-0.1131885
20	0xbea409f9	-0.3203886
21	0xbe8b3142	-0.27186018
22	0xbe913bca	-0.28365928
23	0xbe62fec7	-0.22167502
24	0x3ceed73a	0.029155362
25	0x3dc7f95a	0.09764357
26	0xbd6dc438	-0.058048457
27	0xbe56f3be	-0.20991418
28	0xbe6322aa	-0.22181192
29	0xbe3dce68	-0.18535769
30	0x3bbac3f4	0.005699629
31	0xbe237e7e	-0.15966222
32	0xbe8d257e	-0.27567667
33	0xbe9a9233	-0.30189666
34	0xbec39c57	-0.38205215
35	0x3dbd7f83	0.092528366
36	0x3d883f08	0.06652647
37	0x3d1c2ec5	0.03813054
38	0x3df3685e	0.11885141
39	0xbd05146d	-0.032490183
40	0x3e3a8308	0.18214047
41	0x3ebaaf0b	0.36461672
42	0x3e9f5fa0	0.31127644
43	0x3e6b6a94	0.22989875
44	0xbc553454	-0.013012964
45	0x3ddf54ab	0.10904821
46	0x3e189192	0.1489928
47	0xbb20201a	-0.0024433197
48	0x3c21fa5e	0.009886352
49	0x3cd7ec8a	0.026357908
50	0xbe0deb77	-0.13859354
51	0xbe3314da	-0.17488423
52	0xbe4de28a	-0.20105949
53	0xbd941f6b	-0.07232555
54	0xbd5f5a92	-0.054529734
55	0xbdcfa868	-0.10139543
56	0xbda625f7	-0.0811271
57	0x3d44764d	0.047964383
58	0x3cc4542f	0.023965923
59	0x3e05ad15	0.13054307
60	0x3cad7044	0.021171696
61	0x3e20779f	0.15670632
62	0x3e1d51a0	0.15363169
63	0x3e4087d6	0.18801817
64	0x3e19a44b	0.15004079
65	0x3d922421	0.07135797
66	0xbd84ba65	-0.064808644
67	0xbe09def5	-0.13463958
68	0xbc6369ce	-0.013880206
69	0xbda80331	-0.08203734
70	0xbe27cc2c	-0.16386479
71	0xbe901550	-0.2814126
72	0xbe099eb3	-0.13439445
73	0xbe7bd272	-0.24591997
74	0xbe5ff049	-0.21869005
75	0x3dc01125	0.0937827
76	0xbcb6df12	-0.022323165
77	0xbe14fe85	-0.14550216
78	0xbec046f1	-0.37554124
79	0xbeffd83e	-0.49969667
80	0x3e274894	0.1633628
81	0x3df3e732	0.119093314
82	0xbdbca8f0	-0.0921191
83	0xbe4d89c3	-0.20072083
84	0xbec493f5	-0.38394132
85	0x3c8d85a5	0.01727564
86	0x3e5c34ff	0.21504591
87	0x3e39cdcb	0.1814491
88	0x3dc4e8ef	0.09614741
89	0xbc55f83b	-0.013059671
90	0x3e515307	0.20441829
91	0x3ea68378	0.32522178
92	0x3c81eb49	0.015859263
93	0x3e30123f	0.1719446
94	0x3d10cc2c	0.035350963
95	0xbebdbc46	-0.37057704
96	0xbe08ebcf	-0.13371204
97	0xbd94e13e	-0.07269524
98	0x3d20e0fc	0.03927706
99	0x3d2e6366	0.042575262
100	0xbdcdd393	-0.1005012
101	0xbe01c867	-0.12674104
102	0xbe01d82e	-0.12680122
103	0xbe4bd881	-0.19906808
104	0x3e105caf	0.14097856
105	0x3cbb8210	0.022889167
106	0xbe01c22e	-0.1267173
107	0xbe41b5fa	-0.18917075
108	0xbdfefafb	-0.124502145
109	0xbbf68db5	-0.007524217
110	0x3c1931ac	0.009350222
111	0xbe38574f	-0.18002056
112	0xbe84a731	-0.25908807
113	0xbea4ed7b	-0.32212433
114	0xbd991cee	-0.07476221
115	0xbdce73f9	-0.10080714
116	0xbead421d	-0.33839503
117	0xbe0c4182	-0.13696864
118	0xbb05db73	-0.0020424991
119	0x3df6e26e	0.12054907
120	0x3d8a8a91	0.06764711
121	0x3d72452a	0.05914799
122	0x3e8b8264	0.27247918
123	0xbca0bfbc	-0.019622676
124	0x3b3190a9	0.002709428
125	0x3cba4f1e	0.022742804
126	0x39916b81	0.00027736652
127	0x3d58b77e	0.052909367
128	0xbe35f267	-0.1776825
129	0xbd18a56a	-0.037267126
130	0xbd509bc7	-0.05092981
131	0xbd75d628	-0.06001869
132	0xbe0d69fb	-0.1380996
133	0x3d5755b4	0.052571967
134	0x3e66118e	0.22467634
135	0xbd951f5d	-0.07281373
136	0x3da3415b	0.0797145
137	0x3dc11e74	0.094296366
138	0x3ebd3db8	0.3696115
139	0x3e0e982d	0.13925238
140	0x3bea4e02	0.0071504125
141	0x3e5c4179	0.21509351
142	0x3e568e74	0.20952779
143	0x3df0862c	0.11744341
144	0xbe009256	-0.12555823
145	0x3da33a6d	0.07970128
146	0x3e6c6b4a	0.23087803
147	0xbd018292	-0.031618662
148	0xbde688e9	-0.11256582
149	0x3e168c7e	0.14702031
150	0x3d87b70b	0.066267096
151	0xbd964c06	-0.07338719
152	0x3db42dde	0.08797811
153	0x3e15ae96	0.1461738
154	0x3e3d15b5	0.18465312
155	0xbbd0deb5	-0.006374205
156	0xbe3eed02	-0.18645099
157	0xbde65114	-0.11245933
158	0xbd3d2969	-0.04618207
159	0xbe1e88a6	-0.15481815
160	0xbd5666da	-0.05234418
161	0xbe51840a	-0.20460525
162	0xbe339fe7	-0.17541467
163	0xbe110ec2	-0.14165786
164	0xbde609a9	-0.11232311
165	0x3deb6836	0.11494486
166	0x3da703b6	0.08155005
167	0xbdf4bb4a	-0.11949785
168	0xbe01d6f2	-0.12679651
169	0xbc021474	-0.007939447
170	0x3e6c3cfd	0.2307014
171	0xbbdb98f8	-0.006701585
172	0xbe3c6d05	-0.18400963
173	0xbdc3f43f	-0.095680706
174	0xbd947029	-0.07247955
175	0xbb2b7d9a	-0.0026167394
176	0xbd37a6f0	-0.04483694
177	0xbdeb4910	-0.11488545
178	0xbe72c0b1	-0.23706318
179	0xbdcf3376	-0.10117237
180	0xbde06999	-0.10957641
181	0xbd87e1bc	-0.06634852
182	0xbd93aa55	-0.07210223
183	0x3ea9deae	0.33177704
184	0x3eb32ce4	0.34995186
185	0xbd6d835c	-0.057986602
186	0x3e0d1c81	0.13780405
187	0x3ed7c457	0.42141983
188	0x3eab4237	0.33448955
189	0xb89fbab0	-7.616484e-05
190	0xbc92eb92	-0.017934594
191	0x3e144542	0.14479545
192	0x3ceb8f66	0.028754901
193	0xbd9a0b0f	-0.075216405
194	0x3da3578f	0.07975685
195	0x3d824911	0.063615926
196	0xbe44a1ee	-0.19202396
197	0xbe2d345b	-0.16914503
198	0xbdcd8590	-0.10035241
199	0xbe94cbb1	-0.29061654
200	0xbe8e4064	-0.277835
201	0xbeed25c2	-0.4631787
202	0xbec7afd5	-0.39001337
203	0xbe6e1b1d	-0.2325253
204	0xbd758daa	-0.059949555
205	0xbdf3665b	-0.11884757
206	0xbecc6147	-0.39917967
207	0xbdc5013d	-0.09619377
208	0xbdce2103	-0.1006489
209	0xbe782739	-0.24233712
210	0xbc9eed0c	-0.019400142
211	0xbea25796	-0.31707448
212	0x3b3eb639	0.0029100312
213	0x3e824766	0.25445098
214	0x3dfd2cc8	0.12362057
215	0xbe270bce	-0.16313097
216	0xbe5c4419	-0.21510352
217	0x3e105aa1	0.14097072
218	0x3e8d53ef	0.276031
219	0xbe10948e	-0.14119169
220	0x3df30ddb	0.11867877
221	0xbd7dcb69	-0.061961565
222	0x3e23004a	0.15918079
223	0x3e73a6ba	0.2379407
224	0xbd727449	-0.05919293
225	0xbe1ad051	-0.15118529
226	0x3d43112f	0.04762381
227	0x3cc7a21f	0.024369298
228	0x3e304c21	0.17216541
229	0x3c751332	0.01495819
230	0xbe50b3b7	-0.20381056
231	0x3e34c976	0.17654976
232	0x3ed0b455	0.40762582
233	0x3e116fbf	0.14202784
234	0xbd825968	-0.06364709
235	0xbc275e7a	-0.010215396
236	0x3e640ae2	0.22269776
237	0x3e04fec2	0.12987807
238	0xbe252cae	-0.16130325
239	0xbe3e4913	-0.18582563
240	0xbde78bef	-0.11305987
241	0x3d9da8a5	0.07698182
242	0xbd5afc3f	-0.053463217
243	0xbe3e1088	-0.18560994
244	0xbda3964b	-0.079876505
245	0xbce60555	-0.028078714
246	0xbd76b6ca	-0.060232915
247	0xbe216784	-0.15762144
248	0xbe1aa903	-0.15103535
249	0xbe09a40d	-0.13441487
250	0xbd6e315c	-0.05815254
251	0x3d7c3a60	0.06157911
252	0x3e2483e2	0.16065934
253	0xbcacf577	-0.02111314
254	0xbe11f33f	-0.14252947
255	0xbda25514	-0.079263836

conv_2.bias f4 [10]
0	0xbe93e122	-0.288827
1	0xbe0b81e7	-0.13623773
2	0x3e2c3e30	0.16820598
3	0x3dd6ee3e	0.1049466
4	0xbd79b238	-0.06096098
5	0xbd10f39e	-0.03538858
6	0x3d0a3c04	0.03374864
7	0xbd9ef1c3	-0.07760956
8	0xbb4e7a48	-0.003150599
9	0xbe8a407b	-0.2700232

fc_1.weight f4 [100, 160]
0	0xbb8b7aad	-0.0042565675
1	0x3d7b66ba	0.061377265
2	0xbd3e85ba	-0.04651425
3	0xbd9b4e09	-0.075832434
4	0x3d57ba87	0.05266812
5	0x3d9f17d0	0.07768214
6	0xbdc67cb0	-0.09691751
7	0xbd541bb5	-0.051784236
8	0xbd6eff25	-0.058348794
9	0xbca34b73	-0.019933438
10	0xbdd89f14	-0.10577217
11	0xbcdedf01	-0.027205946
12	0xbccf8a12	-0.025334392
13	0xbd87f949	-0.06639344
14	0xbb6ed10b	-0.0036440517
15	0xbd66f300	-0.056384087
16	0x3d5472b3	0.0518672
17	0x3d2e94db	0.04262243
18	0x3c4fceab	0.012683551
19	0xbda27e73	-0.079342745
20	0x3d97f8a4	0.07420471
21	0xbd964419	-0.07337207
22	0xbd44c150	-0.04803592
23	0xbc569f4d	-0.013099504
24	0xbbb03b38	-0.005378153
25	0xbda2e2b1	-0.07953394
26	0xbd8e6ec8	-0.069547236
27	0xbced71ec	-0.028984986
28	0x3c7ee8ae	0.015558405
29	0x3d43b26b	0.047777575
30	0xbd2ce572	-0.042211004
31	0xbcbab098	-0.022789285
32	0x3d7a67b0	0.06113404
33	0x3bef9d2e	0.0073124385
34	0x3c58c941	0.013231576
35	0x3da975bb	0.082744084
36	0x3d4744f4	0.048649743
37	0x3d92c280	0.07166004
38	0xbd1a82c7	-0.037722375
39	0xbd3d7725	-0.046256203
40	0xbd00b8c3	-0.031426203
41	0x3d8d0d54	0.06887308
42	0x3db5e7a6	0.08882074
43	0x3d9d4f25	0.07681111
44	0xbaa1818b	-0.0012321932
45	0xbd734d13	-0.059399676
46	0xbd3acaf9	-0.045603726
47	0xbcfdd39a	-0.030984689
48	0xbd435378	-0.047687024
49	0xbd7212a4	-0.05909981
50	0xbd45c26b	-0.048281115
51	0xbdabfdf9	-0.08398051
52	0x3d556213	0.052095484
53	0xbcd66c02	-0.026174549
54	0x3d145593	0.036214422
55	0x3c62f7b2	0.0138530005
56	0xbb92db5e	-0.004481717
57	0x3d665c7a	0.056240536
58	0x3d62c203	0.055360805
59	0x3d1403a6	0.036136292
60	0x3dab164d	0.08353863
61	0x3cd9d00c	0.026588462
62	0xbc284b8f	-0.010271921
63	0xba6cdb1f	-0.0009035337
64	0xbd7baa8a	-0.061441936
65	0x3d445b8c	0.04793887
66	0x3c96719c	0.01836472
67	0xbd601239	-0.05470488
68	0xbcb2cf45	-0.02182735
69	0xbdc7d8b1	-0.097581275
70	0x3d5e936e	0.05433982
71	0x3da3a79d	0.07990954
72	0xbce767ee	-0.0282478
73	0xbdc7bfa9	-0.09753353
74	0x3d3255e3	0.04353894
75	0x3c876c35	0.01653109
76	0xbd68d82b	-0.05684678
77	0xbd6fb13b	-0.05851863
78	0xbce038b5	-0.02737079
79	0xbd2e1811	-0.04250342
80	0x3c09e8de	0.008417336
81	0xbc82bf43	-0.015960341
82	0x3a214290	0.0006151581
83	0xbd7318e6	-0.059349917
84	0x3d829f6f	0.06378066
85	0x3db81618	0.08988589
86	0x3d51db00	0.051234245
87	0xbd004370	-0.031314313
88	0xbd46a947	-0.04850128
89	0xbcc9a9fe	-0.024617191
90	0xbc6ca801	-0.014444352
91	0x3d16940f	0.036762293
92	0x3cef269a	0.029193211
93	0xbcd17d3d	-0.025572414
94	0x3d533037	0.051559653
95	0x3d59ce53	0.05317528
96	0xbd9a1dd9	-0.07525224
97	0x3c1fa033	0.009742784
98	0xbd68f4f6	-0.056874238
99	0xbd19e344	-0.037570253
100	0x3d8f85e1	0.07007957
101	0xbbc38f3e	-0.0059680035
102	0xbda60286	-0.0810595
103	0x3d9974d5	0.07492987
104	0x3c53a54c	0.012917828
105	0xbc9650d8	-0.018349096
106	0xbda087db	-0.078384124
107	0xbd75a7d4	-0.059974506
108	0xbdab098a	-0.08351429
109	0xbd3b1366	-0.045672797
110	0xbd95894d	-0.07301579
111	0x3d4bb381	0.049731735
112	0x3d60257f	0.05472326
113	0x3c8b9618	0.017039344
114	0xbc982ab1	-0.018575044
115	0x3bb087c8	0.00538728
116	0x3cab9206	0.020943653
117	0x3d1e48cf	0.038643654
118	0x3d80bfef	0.062866084
119	0x3d7ae5c8	0.061254293
120	0xbc5cf4a8	-0.013486065
121	0xbd4b5049	-0.049637113
122	0x3cc2a7f8	0.023761734
123	0x3da6790a	0.08128555
124	0x3bd33bb0	0.0064463243
125	0xbcb07488	-0.021539941
126	0xbca6144b	-0.020273348
127	0x3d32b543	0.043629896
128	0x3db1d43f	0.08683061
129	0x3d5fb6a9	0.054617558
130	0x3da40db7	0.080104284
131	0xbda03203	-0.07822039
132	0x3ba63e56	0.005073349
133	0x3d9af881	0.075669296
134	0xbd7ea95a	-0.062173225
135	0xbd0f795f	-0.035027858
136	0x3dad0c38	0.08449596
137	0xbd3f845f	-0.0467571
138	0x3d2e6eb5	0.042586047
139	0xbd31d4e1	-0.043415908
140	0x3d2b1881	0.041771416
141	0x3c0b9033	0.0085182665
142	0xbd086b2d	-0.033305336
143	0xbd95e003	-0.073181175
144	0xbd6b0849	-0.05738095
145	0x3da4b5b2	0.08042468
146	0x3d0672ae	0.03282421
147	0x3c9c11c7	0.019051446
148	0x3d8a615d	0.06756852
149	0x3bbe2063	0.0058022006
150	0x3c9dca50	0.01926151
151	0x3db1bec5	0.086789645
152	0x3c87da52	0.016583595
153	0xbd6b8392	-0.057498522
154	0xbd457ba4	-0.048213616
155	0xbc3a0cfc	-0.011355635
156	0xbdc4d387	-0.09610658
157	0xbd1297cb	-0.035789292
158	0xbd212175	-0.039338548
159	0xbd29e113	-0.041474413
160	0xbbcdcf85	-0.006280842
161	0x3d23e483	0.040012848
162	0x3b81184f	0.0039396654
163	0xbd06e24c	-0.032930657
164	0xbc9282d4	-0.01788465
165	0x3d947dfe	0.072505936
166	0xbc8dead2	-0.017323885
167	0xbd9ad65f	-0.07560419
168	0xbcd2f1fe	-0.025750156
169	0x3d787651	0.06065971
170	0xbd329ce2	-0.043606646
171	0x3c353c26	0.011061704
172	0xbd0d5d6f	-0.034512933
173	0x3d7d5576	0.06184908
174	0x3bdb6452	0.0066953087
175	0xbd3c4587	-0.045964744
176	0x3de63b9a	0.11241837
177	0x3d2a9ab5	0.041651446
178	0xbd8bed3c	-0.06832358
179	0x3dab63a4	0.08368614
180	0xbbc5ee76	-0.0060403896
181	0xbdefa50e	-0.117014036
182	0xbd048905	-0.032357235
183	0xbc4ac8ef	-0.012377008
184	0xbd998e58	-0.07497853
185	0xbd174f3e	-0.036940806
186	0xbdc719eb	-0.0972174
187	0xbdc5b6a1	-0.09653974
188	0xbcd3fa51	-0.025876196
189	0xbdfc1162	-0.12308003
190	0xbcbdc9c3	-0.023167497
191	0x3c718391	0.0147408405
192	0x3c3c0003	0.011474612
193	0x3dbbe464	0.091744214
194	0x3dadb652	0.084820405
195	0x3da99318	0.08280009
196	0x3e0abd0b	0.13548677
197	0xbe00d4c4	-0.12581164
198	0x3dfbd4f4	0.12296477
199	0xbca66b04	-0.0203147
200	0xbdb37e5f	-0.08764338
201	0xbd8db918	-0.069200695
202	0x3e005e51	0.12535979
203	0xbc15003d	-0.009094295
204	0xbd8b0cb5	-0.06789533
205	0xbc706117	-0.0146715855
206	0xbd9f6e48	-0.07784706
207	0x3d5cf740	0.053946733
208	0xbdc56374	-0.0963811
209	0x3d3bc1aa	0.04583899
210	0x3d219d60	0.039456725
211	0x3da715f7	0.08158486
212	0x3db77387	0.08957582
213	0xbd1709bb	-0.036874514
214	0xbcba6c3a	-0.022756685
215	0xbccaa0fc	-0.024734966
216	0xbda88e48	-0.08230263
217	0xbbca9579	-0.0061823693
218	0xba85576d	-0.001017315
219	0xbbf9d01b	-0.007623685
220	0x3c752a80	0.014963746
221	0xbcccf4d0	-0.02501908
222	0xbca6d1ad	-0.020363653
223	0xbd513536	-0.051076137
224	0x3d96238f	0.07331001
225	0x3e19fc05	0.15037544
226	0xbd70a404	-0.058750167
227	0x3db1a55a	0.086741164
228	0x3d8b372c	0.067976326
229	0xbb5c7e04	-0.0033644447
230	0xbc946ab4	-0.018117286
231	0xbd9be6b6	-0.07612364
232	0x3d867dfe	0.06567
233	0xbd360c2f	-0.044445213
234	0xbd3e4406	-0.04645159
235	0x3a9a2744	0.001176097
236	0x3db6a77e	0.08918665
237	0x3db50fa1	0.088408716
238	0x3da22f1d	0.079191424
239	0x3d38b04f	0.045090016
240	0x3d6d5d1c	0.057950124
241	0xbe053268	-0.1300751
242	0xbd1e617a	-0.03866718
243	0xbd502132	-0.050812908
244	0xbd563d9c	-0.05230485
245	0xbce6bd77	-0.028166516
246	0x3d9269b5	0.07149068
247	0xbd889fb4	-0.06671086
248	0x3d89b923	0.06724765
249	0xbd7305c5	-0.059331674
250	0x3d80ecba	0.06295152
251	0x3c27b671	0.0102363685
252	0xbd2ae9d0	-0.041726887
253	0xbd37e0cc	-0.044892117
254	0x3cb1af4e	0.021690037
255	0x3defa33d	0.11701057

fc_1.bias f4 [100]
0	0x3d89af6d	0.06722913
1	0x3c6d3afc	0.014479395
2	0x3bf93271	0.00760489
3	0x3dd36ed7	0.103238754
4	0xbc34ef38	-0.011043362
5	0x3dc54a49	0.096333094
6	0x3dad7d43	0.084711574
7	0xbd927a53	-0.07152238
8	0xbc04e078	-0.008110158
9	0xbcd4fb91	-0.025998862
10	0x3d07e7be	0.03317999
11	0x3d92982a	0.07157929
12	0xbd53d432	-0.051716037
13	0x3dc14cb6	0.094384596
14	0xba15ffda	-0.0005722024
15	0x3d2e1d3d	0.042508353
16	0x3ca9be3d	0.020720595
17	0xbbf2a075	-0.007404382
18	0xbd5586a5	-0.05213036
19	0x3d98fa7c	0.07469651
20	0xbb092083	-0.002092392
21	0xbd14983f	-0.036278006
22	0x3bc11d5c	0.0058933925
23	0x3c5c7ec8	0.013457961
24	0xbda00cc6	-0.07814936
25	0x3cef6bfe	0.0292263
26	0xbd128ef0	-0.035780847
27	0x3cfab064	0.030601688
28	0xbbe6c8a2	-0.0070429603
29	0x3d964256	0.07336871
30	0x3d385b1a	0.045008756
31	0xbca9ba33	-0.02071867
32	0x3d3696ec	0.044577524
33	0x3d1dda97	0.03853854
34	0x3d2d2d65	0.04227962
35	0xbc379a92	-0.011206286
36	0xbd95bd39	-0.07311482
37	0xbbec2242	-0.0072062323
38	0x3c05e6ef	0.008172735
39	0xbd64a965	-0.05582561
40	0x3da9361d	0.082622744
41	0x3d1a3897	0.037651625
42	0xbd8ed7ab	-0.06974729
43	0x3d9c0c7f	0.07619571
44	0x3d5c4d55	0.053784687
45	0xbd13b8df	-0.03606498
46	0xbda209d3	-0.0791203
47	0xbcff516f	-0.03116676
48	0x3d862187	0.065493636
49	0x3d293558	0.04131064
50	0x3da24d7e	0.07924937
51	0xbd00a91f	-0.031411286
52	0x3d83ae21	0.06429697
53	0xbd0b4cc6	-0.034008764
54	0xbd173aad	-0.036921192
55	0xbd11243b	-0.035434943
56	0xbcdb867e	-0.02679753
57	0x3d51f1ab	0.051255863
58	0x3da8abaf	0.08235871
59	0x3d2f1125	0.04274096
60	0xbbae65a9	-0.0053221774
61	0x3d097ba0	0.033565164
62	0x3da02cbe	0.07821034
63	0x3d8207fb	0.063491784
64	0x3b8181e1	0.0039522504
65	0xbd8dd8fe	-0.069261536
66	0xbd901723	-0.07035663
67	0x3c6d19d4	0.01447149
68	0x3d903b98	0.070426166
69	0xbd1c6d8f	-0.03819042
70	0x3d249ad2	0.04018671
71	0xbd9da3f9	-0.07697291
72	0x3b203adb	0.0024449143
73	0xbd57ba0e	-0.05266767
74	0x3d2d8033	0.04235859
75	0xbd3389e2	-0.043832667
76	0x3cee995b	0.02912586
77	0xbcd52b2e	-0.026021566
78	0x3c4f585e	0.012655346
79	0x3d21341f	0.039356347
80	0xbd2117fe	-0.03932952
81	0x3dba58d3	0.09098973
82	0x3cd28820	0.025699675
83	0x3d6d1319	0.05787954
84	0x3d588f5a	0.052871086
85	0x3cf2a33a	0.029618848
86	0x3c29864d	0.010346961
87	0xbc9184ad	-0.01776346
88	0xbd51f83b	-0.05126212
89	0x3d2e2354	0.04251416
90	0xbb829130	-0.003984593
91	0xbda0b672	-0.07847299
92	0x3d46b2b5	0.048510272
93	0x3d81da1f	0.063404314
94	0xbcb5da57	-0.02219884
95	0x3cac4d77	0.021033032
96	0xbc840f37	-0.016120536
97	0xbd203067	-0.03910866
98	0x3d2b08bc	0.041756377
99	0x3ba2991d	0.0049621

fc_2.weight f4 [10, 100]
0	0x3d9264fe	0.07148169
1	0xbd4c8fd5	-0.049941856
2	0xbd91cf25	-0.07119588
3	0xbac4cc51	-0.0015014504
4	0xbd0ada52	-0.033899613
5	0xbdaf1a32	-0.08549918
6	0x3b8a74d3	0.0042253523
7	0x3d4903f6	0.049076043
8	0x3e4ae514	0.19813949
9	0x3c2100ae	0.009826822
10	0xbbd7953f	-0.006579071
11	0xbdc761db	-0.09735461
12	0x3d8d80ae	0.06909309
13	0xbe3cda0f	-0.18442558
14	0x3d3584a4	0.04431595
15	0x3dcfc253	0.10144486
16	0x3e9a18d7	0.30097076
17	0x3e305853	0.17221193
18	0xbd1ccbb1	-0.038280193
19	0x3e656198	0.2240051
20	0xbd8e1d6c	-0.069392055
21	0x3be30702	0.0069283256
22	0x3db273f6	0.08713524
23	0xbd5a2d72	-0.053265996
24	0x3ca58416	0.020204585
25	0x3e1a5941	0.1507311
26	0x3ca3cb78	0.019994482
27	0xbcb90b9f	-0.02258855
28	0xbe854be6	-0.26034468
29	0x3e80307e	0.25036997
30	0xbd8ebb87	-0.06969362
31	0x3c36eb29	0.011164465
32	0xbecce19d	-0.4001588
33	0xbe598c17	-0.21244846
34	0x3d5f667e	0.054541104
35	0xbdcef203	-0.10104754
36	0x3d8a9be2	0.067680135
37	0x3e618de9	0.2202679
38	0xbc93983f	-0.018016933
39	0x3cd1688f	0.025562553
40	0x3d97b670	0.07407844
41	0x3e71bfff	0.23608397
42	0x3cf46e85	0.029837856
43	0x3e5f0a21	0.21781208
44	0x3d88ec0c	0.06685647
45	0xbecb48a8	-0.3970387
46	0xbb008126	-0.0019608228
47	0xbea444a2	-0.32083613
48	0x3e6419e5	0.22275503
49	0x3db8d3c4	0.09024766
50	0xbe3db0c5	-0.18524463
51	0xbe391eb6	-0.18078122
52	0xbe09b0c9	-0.13446344
53	0x3bb33b82	0.0054697404
54	0x3ece21ac	0.40260065
55	0xbd26785e	-0.040642135
56	0xbbdc0104	-0.0067139883
57	0xbe995023	-0.29943952
58	0xbcd18a66	-0.025578689
59	0x3dc4ce63	0.09609678
60	0x3e3a3f2b	0.18188159
61	0x3d08260f	0.03323942
62	0xbd8311e1	-0.063998945
63	0x3b8ea8d7	0.0043536234
64	0x3d9effab	0.077636085
65	0x3dd8b763	0.10581853
66	0x3e9d3a3d	0.30708495
67	0x3db43e96	0.08801
68	0xbc27d0b3	-0.010242629
69	0xbdc0b38b	-0.09409245
70	0xbe04164a	-0.12899128
71	0xbe046bd2	-0.12931755
72	0xbe88006e	-0.26562828
73	0x3e91cf59	0.28478506
74	0xbddcf727	-0.10789328
75	0xbe052d18	-0.13005483
76	0xbc84f809	-0.016231554
77	0xbdfa768a	-0.12229641
78	0x3b61bc94	0.0034444677
79	0xbe2d92ae	-0.16950485
80	0x3da67469	0.08127672
81	0xbe4e5e9e	-0.20153281
82	0xbe4e9b4f	-0.20176433
83	0x3e71cbf3	0.23612957
84	0x3e55e4fd	0.20888133
85	0xbe8532d0	-0.2601533
86	0xbe304024	-0.17211968
87	0xbe150b25	-0.14555033
88	0x3baac908	0.005211953
89	0xbdbbf29e	-0.09177135
90	0x3def2dd8	0.11678666
91	0x3e1b44dc	0.15162987
92	0x3e63c2e7	0.22242318
93	0x3ce7212f	0.028214065
94	0x3e5472ac	0.20746869
95	0xbe41eb53	-0.18937425
96	0x3dac1ff9	0.08404536
97	0xbe83ca8e	-0.25740474
98	0xbd9c25e5	-0.07624415
99	0xbe50c6b4	-0.20388299
100	0x3e650d23	0.22368293
101	0x3e1e0787	0.15432559
102	0x3c8a23a8	0.016862705
103	0x3e5d9466	0.21638641
104	0x3eb626a2	0.3557635
105	0x3e4be6ca	0.19912258
106	0xbe486ed8	-0.19573534
107	0x3ddeea37	0.10884517
108	0xbe7dd1ae	-0.24787018
109	0xbdab5815	-0.0836641
110	0xbc886026	-0.01664741
111	0xbdaa4adc	-0.083150595
112	0xbee3790b	-0.44428286
113	0x3c1d8b32	0.009615706
114	0x3d042134	0.032258227
115	0x3cb64a74	0.022252299
116	0xbe846a03	-0.2586213
117	0xbc851e53	-0.016249811
118	0xbd9014b8	-0.07035202
119	0x3e409a2b	0.1880881
120	0xbcd31a7a	-0.025769461
121	0x3e91fb7c	0.2851218
122	0x3d3dbca5	0.046322484
123	0x3d3aac1a	0.045574285
124	0xbe4bac8e	-0.19890043
125	0xbd4ddc04	-0.05025865
126	0xbe0a1a9d	-0.13486715
127	0xbdf2ba11	-0.118518956
128	0x3cf3ec6b	0.029775819
129	0xbe1097ac	-0.14120358
130	0xbaa78d72	-0.0012783243
131	0x3d71c035	0.059021194
132	0x3e1ad14d	0.15118904
133	0xbe6ee6e4	-0.23330265
134	0xbce7b916	-0.028286498
135	0x3d1b3544	0.037892595
136	0x3dee9ade	0.11650632
137	0x3e6aa994	0.22916251
138	0x3d3be745	0.045874853
139	0x3c9db7a4	0.019252606
140	0x3e09685e	0.13418719
141	0xbd98cd0c	-0.074609846
142	0xbdae017e	-0.08496378
143	0x3e87c59d	0.26517954
144	0xbc71888f	-0.014742031
145	0x3d10379e	0.03520929
146	0x3dd517b9	0.10404915
147	0xbd20c379	-0.039248917
148	0x3d9d90b3	0.07693615
149	0xbde6381b	-0.1124117
150	0x3dd766dc	0.10517666
151	0x3e715feb	0.23571746
152	0x3d6e40a8	0.05816713
153	0xbe57020a	-0.20996872
154	0xbe443eed	-0.1916463
155	0x3dda0753	0.10645928
156	0x3ba0859f	0.0048987414
157	0xbe324555	-0.1740926
158	0xbd06ed03	-0.032940876
159	0x3dd68c64	0.10475996
160	0x3bf8104f	0.0075703035
161	0xbc8f86c1	-0.01752031
162	0xbe0c3163	-0.13690715
163	0xbebb6de6	-0.36607283
164	0xbd22dad8	-0.039759487
165	0xbd2d0640	-0.04224229
166	0xbe040ff5	-0.12896712
167	0x3e62fd09	0.22166838
168	0x3e794b22	0.24345067
169	0xbe22f4b5	-0.15913661
170	0xbd2737f9	-0.040824864
171	0xbdea415f	-0.1143825
172	0xbd5412c3	-0.051775705
173	0x3d1bd0fe	0.038041107
174	0x3c3182e1	0.010834427
175	0xbd8d0d16	-0.068872616
176	0xbe410836	-0.18850788
177	0x3cf7af63	0.030234998
178	0x3e4bc612	0.19899777
179	0x3e7f312b	0.249211
180	0x3dcc4b6b	0.09975322
181	0xbd6d55f4	-0.0579433
182	0x3ea2f681	0.31828693
183	0x3e1e9ced	0.1548955
184	0x3d0da32f	0.034579452
185	0xbe2c73fb	-0.16841118
186	0x3dc8e9a8	0.098101914
187	0x3e8f3f6b	0.27978072
188	0x3c634c8f	0.013873233
189	0xbdb80734	-0.08985749
190	0xbe83583c	-0.25653255
191	0xbb328634	-0.0027240636
192	0xbde84939	-0.11342091
193	0x3e80cde2	0.25157076
194	0x3de192c1	0.11014319
195	0x3e8bda8a	0.2731517
196	0xbda3ca16	-0.07997529
197	0x3dfddd73	0.12395754
198	0x3eaec375	0.34133497
199	0xbd94ddfe	-0.07268904
200	0x3d6dc788	0.058051616
201	0xbe8bfd87	-0.27341864
202	0x3d84317f	0.06454753
203	0xbddc043f	-0.107429974
204	0xbd88b444	-0.06675008
205	0xbda7881b	-0.08180257
206	0x3ba5dc50	0.0050616637
207	0x3e0aefd3	0.13568048
208	0xbe184ba1	-0.148726
209	0x3de25457	0.11051243
210	0x3d3e0246	0.046388887
211	0xbd1be535	-0.038060386
212	0x3e7de4e1	0.24794342
213	0xbe4ac6ea	-0.19802442
214	0xbdd54f0c	-0.104154676
215	0xbd8210e9	-0.063508816
216	0xbd2e17c0	-0.04250312
217	0x3c806cc3	0.015676862
218	0xbd6ef64f	-0.058340367
219	0xbda37497	-0.07981222
220	0xbe0c72b0	-0.13715625
221	0xbe42898e	-0.18997785
222	0xbda03b3b	-0.07823797
223	0x3c828d32	0.015936468
224	0x3e3935e8	0.1808697
225	0x3c6da34d	0.014504266
226	0x3dedfaed	0.11620126
227	0x3dd6194e	0.10454045
228	0x3d0f781c	0.035026655
229	0xbea3b399	-0.3197296
230	0xbdb7f61a	-0.08982487
231	0xbeb2e650	-0.3494134
232	0x3e542bf2	0.20719889
233	0xbe3c6106	-0.18396387
234	0xbc82a4f1	-0.01594779
235	0x3cae4bed	0.021276439
236	0xbc45f337	-0.012081913
237	0xbd067fc6	-0.032836698
238	0x3d11c85a	0.03559146
239	0xbd304057	-0.04303011
240	0x3e81f817	0.2538459
241	0x3d45d417	0.048297968
242	0xbe0bf5ac	-0.13667935
243	0x3e25de5a	0.16198102
244	0x3bee0544	0.0072638113
245	0xbe8f4b8e	-0.2798733
246	0x3eaab7f4	0.3334347
247	0xbeb50fea	-0.35363704
248	0x3eaa3912	0.33246666
249	0x3b5c7cd9	0.003364375
250	0x3e7ffcfd	0.24998851
251	0x3e4c6270	0.19959426
252	0xbe8be6ae	-0.27324432
253	0xbde0b6b1	-0.109723456
254	0xbe41b567	-0.18916856
255	0x3c99e245	0.018784652

fc_2.bias f4 [10]
0	0x3cd3f714	0.025874652
1	0x3bb9dc98	0.005672049
2	0xbd1808ea	-0.037117876
3	0xbd0ccea2	-0.034376748
4	0x3df89f13	0.12139716
5	0x3c365f99	0.011131191
6	0xbdb93706	-0.09043698
7	0x3d58ccbc	0.052929625
8	0x3ccfffbb	0.025390496
9	0xbd445f48	-0.04794243
